data.pth (torch, 8343 bytes, 6 tensors)

l1.weight f4 [8, 113]
00000000: 890e bb3e 11ee 983e de22 3fbd 5db9 723e
00000010: 5765 1ebf c5bc b93c 8c4e a53d 616b 8e3d
00000020: 1bcd 1bbe 74fa 16bf f8c4 423d 186d 0fbd
00000030: af67 933e eec5 cdbc 3c75 ebbe f2fc 393f
00000040: aee1 583e 3728 0d3f ab2d 14be 564d b4be
00000050: 4b5b 323f a5fc 883d 761f 4fbe ae9b 643e
00000060: a165 58bf ccc0 25bf fca7 273c 9ef0 583c
00000070: 2f85 ad3d 50a0 81be ed6b 0c3f fb6d fabc
00000080: 5f64 333d 3b73 5cbc 1490 3dbf db49 d3bd
00000090: a250 1fbf 0073 41bf 108a af3f 9efe 333c
000000a0: 0d30 09bf a7b4 68be 95fa 08be 7545 80bd
000000b0: 6d4f 103f fd58 5f3f 5a32 303f 9f80 de3d
000000c0: df36 b93d 964d 383f 460a 4c3f 5e41 3b3f
000000d0: 3a2d 243f 7aac 243f 3722 ee3e c3a9 a13e
000000e0: e1bd 4bbc 4647 4bbf cfeb 1c3f f94d 9b3e
000000f0: 67a4 af3d 6003 b1bb 4768 953f c308 52be
00000100: 0bba cb3c 831c 883e 287a b83d 57a1 dabe
00000110: c907 123f 1dd1 613f ad60 923e 3f28 b4bc
00000120: 6bfb 273e 19d0 1b3f ebdf fe3d 913c 073e
00000130: a25a 853d 0690 30bc 5185 74be c3ee d4be
00000140: a7fb 15bd bbda 9e3e 207b 1dbf 0dec 2a3e
00000150: 924b 6e3e 5332 4b3e e19f 83be 1ae6 ec3e
00000160: 7c2f dbbe 761f e33c 7976 41bf d301 2e3f
00000170: 8436 27bd 35bd 4ebf 4b15 93be 8d3d 873f
00000180: b0c4 e93e 809e febd 21bf 5abc 805b f4be
00000190: a691 7c3e 0d7b b43e 54d0 fabd 6a44 813d
000001a0: 9053 bf3e 9fed 4c3e f734 053e ed2c 463f
000001b0: 89c6 8b3e 13b0 96be e1e6 cf3e 8c5e 2d3f
000001c0: a88c 7a3e a737 5e3f e608 0e3f 2865 2c3f
000001d0: 9881 0b3e 8bcd 83bf e0b5 30be b127 74bd
000001e0: c107 36be ad2e 90be f952 46bd 5321 083f
000001f0: 0836 fabd 4d3e e13e 0536 423e 841c acbe
00000200: e3c2 4b3f 5ef6 ae3e 83c7 a33e 5f2e 943e
00000210: 1741 c03f aa30 203e 108b a73d 0f17 50be
00000220: 9c3c c9bd 72c7 10be 7f43 bfbe f0a2 4cbe
00000230: dda0 20be decf 3d3f d753 b53e 49c9 9a3e
00000240: a1b1 18be 75fe 883f 50fc 33be d03b 8fbf
00000250: 7fbd 3ebe bce1 fcbe e1ed 07bf 2bc5 8abf
00000260: 2868 943e b63c 053d ac40 683e e248 0bbe
00000270: c346 ac3e de09 013f fb30 663f 6ca2 373f
00000280: 8350 0dbf a2ef ed3e 7244 123f 4067 373f
00000290: c2b6 063f ae22 093f ed3b 8fbf 82fd 293f
000002a0: d91b 7b3e 2924 ef3e ce23 21bf 0c26 4f3e
000002b0: ce11 bc3d f97a ca3e 05ae 09be 0cbc 55bf
000002c0: 5ebb 323f 5501 003f 5956 b63e 7992 0dbd
000002d0: 6396 2f3f eeae e1be 188e 383f d984 033f
000002e0: debd 783e 47b1 503e 3762 fe3e 5d99 f0bd
000002f0: e821 d7be fe42 3dbe 31cf a8bd def4 803e
00000300: b65c 56be 023c 8bbe a28b 2a3e 59e7 81bf
00000310: cd56 0b3f 7fd6 753c 38dc f33d 609c ac3e
00000320: a116 84be dd65 a5be 8b78 81bd fa24 ae3e
00000330: 5d57 de3e 376e 53bb fa2b 833e b958 373d
00000340: 233b a33f f2dd 493f 926d 20be 0033 593e
00000350: 1ed2 583c 775b 143f 673e 083f e790 a13e
00000360: 22bf 283f 5388 28be c4bf 203e 3526 eebe
00000370: 1b48 b9be 0156 2e3e e618 463e 253a aabe
00000380: e627 2f3f 088c debd ee69 99be 0389 643e
00000390: d129 9e3e 18e6 4a3e c39c 773e 29e1 053f
000003a0: 8ecf 85bd 5069 05be 0cbb 3abc 7696 cd3e
000003b0: 0020 8e3e eced 10bf 26b5 fb3e 88f9 233f
000003c0: 08aa 363e 3447 3bbf f91a f43e 458d 623f
000003d0: 4f5c 68be 12ff 4fbe 936b b13f 003c 573a
000003e0: 7ba0 fcbd d988 423f 62cd 76bf 1ca2 5dbf
000003f0: bf49 4fbe e445 fb3d 4fe6 f3be ed5c a9be
0.36534527 0.2986913 -0.04666411 0.23703523 -0.6187338 0.02267302 0.08071622 0.06954075
-0.1521496 -0.5897591 0.047551125 -0.03501615 0.28790042 -0.025118794 -0.4598788 0.7265159
0.2117984 0.5513949 -0.14470546 -0.35215253 0.6967055 0.06688813 -0.20226845 0.22325012
-0.84530073 -0.6474731 0.010232922 0.013240961 0.084726684 -0.2531762 0.5485218 -0.03057002
0.043796893 -0.013455207 -0.7404797 -0.10316821 -0.6223241 -0.755661 1.3714008 0.010985998
-0.53588945 -0.22725163 -0.1337684 -0.06263248 0.56371194 0.8724516 0.6882683 0.10864376
0.09043669 0.71993387 0.79703176 0.7314662 0.6413151 0.6432568 0.4651048 0.3157483
-0.012435407 -0.7940563 0.61297315 0.30332926 0.08576279 -0.0054020137 1.1672448 -0.20511155
0.024868986 0.26584253 0.090076745 -0.42701218 0.5704313 0.88209707 0.28589383 -0.021991847
0.16404502 0.60864407 0.12445053 0.13206698 0.065114275 -0.010776525 -0.23878981 -0.4158841
-0.036616948 0.31026253 -0.61516 0.16691609 0.23271015 0.19843416 -0.25707915 0.46269304
-0.42809665 0.027724963 -0.755714 0.67971534 -0.040823475 -0.80757457 -0.28727183 1.0565659
0.45657873 -0.12432575 -0.013351233 -0.4772606 0.24664935 0.3525013 -0.12246767 0.06311877
0.3736844 0.2001252 0.13008486 0.774123 0.27299908 -0.2943121 0.40605834 0.6772239
0.24467719 0.8680367 0.5548233 0.6734185 0.13623655 -1.0297102 -0.1725688 -0.059608165
-0.17776395 -0.2816061 -0.048418973 0.5317585 -0.12217337 0.43992844 0.1896592 -0.33615506
0.7959425 0.34172338 0.31988153 0.28941628 1.5019864 0.15643564 0.08180821 -0.20321296
-0.098260134 -0.14138582 -0.37356183 -0.1998403 -0.15686364 0.74145305 0.35415527 0.30231693
-0.1491151 1.0702654 -0.17576718 -1.1190128 -0.18626975 -0.49390972 -0.5309735 -1.0841421
0.28985715 0.0325286 0.2268092 -0.13602021 0.33647737 0.5040568 0.8991849 0.7173221
-0.55200976 0.46471888 0.5713569 0.7164192 0.52622616 0.5356854 -1.1190163 0.6640245
0.24522342 0.46707276 -0.6294526 0.20229357 0.091830835 0.39546946 -0.1344529 -0.8349006
0.6981715 0.5000203 0.35612753 -0.034563515 0.68588847 -0.44078773 0.7209182 0.51374584
0.24291179 0.20380126 0.49684307 -0.11748002 -0.42018056 -0.18482587 -0.082426436 0.2518682
-0.20933804 -0.2719422 0.16654828 -1.0148727 0.5442932 0.015004753 0.11907238 0.33713055
-0.25798514 -0.32304278 -0.0632182 0.34012586 0.43426028 -0.0032261738 0.2561949 0.044762347
1.2752422 0.78854287 -0.15666798 0.21210861 0.01323369 0.57952064 0.5322022 0.31555864
0.65916646 -0.16458254 0.15698153 -0.46513525 -0.36187825 0.17024995 0.19345436 -0.33247486
0.68420255 -0.108665526 -0.2996363 0.22317891 0.30891278 0.19814336 0.24180894 0.5229669
-0.065337285 -0.13028455 -0.0113971345 0.40153855 0.2775879 -0.5661304 0.49161643 0.6405263
0.178383 -0.7315552 0.47676829 0.8849681 -0.22691463 -0.20312145 1.3860954 0.000821054
-0.12335297 0.7599006 -0.9640714 -0.86575484 -0.20242976 0.1226919 -0.4763665 -0.3307871

l1.bias f4 [8]
00000000: eb70 413f 8a34 8f3f a7a3 5d3f 6cce 4e3f
00000010: f254 903f c3ca 053f 4d44 953f 8569 7d3f
0.75562924 1.1187909 0.8657784 0.80783725 1.1275923 0.52262515 1.1661469 0.98989135

l2.weight f4 [8, 8]
00000000: c562 c73d 4eb6 c23f c7cd 9e3f 21b8 e23e
00000010: 0364 05be adf0 0e40 f6bc 8c3f 505d e3bf
00000020: e167 0540 e234 963e e5c0 9b3f 1060 21bd
00000030: fec9 97bf 2324 f13f 42d8 f3be 1b82 863f
00000040: 8cbf 6f3f d3de 0b3f 37d8 0c40 7f89 d33e
00000050: b9fe ef3e 8e8e 73bf b759 94bf 1fd9 a8be
00000060: cf13 793f ec59 bb3f 833b 923e 47c6 89bf
00000070: dc45 93bf 7e26 03bf ef52 0940 2653 01be
00000080: 077f 18bf a717 e83f fdee adbf a338 da3f
00000090: 851f 743f 4477 fd3e 0cd6 fb3e ce2e c93f
000000a0: 0828 83bf aa5e 72bf 6899 f23f 8814 bb3f
000000b0: 2ba0 d23f 52e3 ffbe 3919 b83f d794 c8be
000000c0: deb3 bc3e 5ac5 ce3f ff9d 2cbe c776 9e3e
000000d0: dbd8 e33d fb5c 02c0 1d87 6bbe 941d fb3f
000000e0: dff5 c13f 040f e83d 8b53 9f3d 0cf8 c8bf
000000f0: 78ce e33f cdf4 36bf 808b 563e c933 703f
0.09735636 1.5211885 1.2406548 0.44281104 -0.13026433 2.2334397 1.0995166 -1.7762852
2.0844653 0.2933722 1.2168242 -0.039398253 -1.1858518 1.8839153 -0.4762593 1.0508455
0.9365165 0.5463688 2.2006967 0.4131584 0.46874025 -0.95139396 -1.1589879 -0.3297815
0.9729585 1.4636817 0.2856103 -1.0763634 -1.1505694 -0.5123061 2.1456869 -0.12629375
-0.5956883 1.8132218 -1.3588558 1.7048534 0.95360595 0.49505055 0.49186742 1.5717409
-1.0246592 -0.94675696 1.8953066 1.4615641 1.6455129 -0.4997812 1.4382697 -0.39176056
0.36855978 1.6153977 -0.16857146 0.30949995 0.11125346 -2.036925 -0.2300076 1.9618402
1.5153159 0.11330989 0.077796064 -1.5700698 1.7797384 -0.71467286 0.20951653 0.9382902

l2.bias f4 [8]
00000000: cf43 96bd f3af 9d3e 05c8 16bd 76de 243f
00000010: c975 233f aa4d 503f e00f 813e e981 483f
-0.07337152 0.307983 -0.036811847 0.6440195 0.638516 0.81368506 0.25207424 0.7832323

l3.weight f4 [21, 8]
00000000: 6e49 0dc0 39d2 083f ea0c 5f3e 083b c9bf
00000010: ce38 44bf 780e 18bf 8053 083e 80b3 4c3f
00000020: 64ac 723c 15a6 a6be 01e9 b7bd 4df6 ab3e
00000030: 9dab ea3e 96b0 88bf 100d 733e b9b2 24c0
00000040: 87bd 4b3e fd42 dcbe 9c84 703f e20b 70bf
00000050: 4fdd adbf 1eff c33d 9c88 67be 980c 0c3e
00000060: 6184 003f 89f0 f7bf 2151 06c0 52f5 d5bf
00000070: d47b 983e bbb0 733e 3c41 c3bf 7f5a 513f
00000080: 9dc6 dabf 9551 fbbf 95b2 2bc0 4fdd 82bf
00000090: 19ec ee3e 20fc a93e ab7b cc3e 0f87 f53d
000000a0: c97b 0dc0 46ca 7e3e c20a 0abf 532c 34bf
000000b0: 9be0 1b3e 7847 e83e 5c1f a93e 0234 04c0
000000c0: 97a2 ef3e b95a 62bf 77a1 723e a214 bbbf
000000d0: 217b c6be b00c 513f a9cc d2bf 2993 b0bf
000000e0: a29d cfbf 6b07 5e3f 1873 1a3f 4fc9 c63e
000000f0: 1fc2 24c0 75b8 acbf 6cff 89be e7c1 503f
00000100: 5d23 07c0 5523 0ec0 2782 543e 5e7c 89bf
00000110: 91ed 2bbf fbb1 433f 6e49 23bf 7e69 813f
00000120: 3471 433f 3aa8 973e 7eb1 debf 761c 633f
00000130: 0a1f 0cbf fb4a 02c0 0fea 3cbf a27a 55be
00000140: 4df4 7bbf c6d2 2cbe 5e1c f2bf 9c29 4e3f
00000150: b63e 3fbe 71f1 f8bf 1105 d23e dc15 303f
00000160: a043 193f 0c06 2a3f 87bb 053f 43aa e7bf
00000170: 9131 17c0 a2b6 7c3e b983 bebf afb3 81bf
00000180: b4c9 e53b 8415 fabe 3859 6cbf 376c e33e
00000190: 6bba 90be 85f7 803d f3e1 0abe 27b1 603e
000001a0: 5b70 2b3f 4d61 6f3e 9be8 d3bc 4994 d93e
000001b0: 7aed 73bf cbd8 6cbe 4be3 c2bf 5676 75bf
000001c0: d30f b1be 85a3 63bf 5ee9 75bf e314 14bf
000001d0: 40ee 40bf 97fe 39bf 5f4f 07bf f600 17bf
000001e0: 6943 a83e f9bd 693e 0c7c 373e b80d 213f
000001f0: a692 0dc0 8b24 50bf 6696 2c3e d2ea efbd
00000200: fd6d 7cbf 5be1 64bf 29a7 873e af97 c7bf
00000210: c1c4 b83e 5d04 7cbf bffe 373f ee42 0abe
00000220: 09f1 24bf 8cb0 563f 5b94 f6bf 1d5d c6bf
00000230: caa7 af3e 169f f9bf 433a d93e 3064 24be
00000240: 55b3 103f a3bd c1bf 3bf7 e9be 4406 0e3f
00000250: 9fa3 04c0 f2da 3d3f 97be a4bf 8e74 b83e
00000260: e9f8 223f b51e f6bf df78 11c0 5dcf 413e
00000270: a83e af3e 91d6 bf3e 7a25 1abf 566e edbf
00000280: b2d7 febd 8309 df3e 6a1a e63e 2dd2 aa3d
00000290: ede3 2abf beca 23c0 6710 c33e 4617 bbbc
-2.2076068 0.53445774 0.2178227 -1.572114 -0.7664918 -0.5939708 0.13313103 0.79961395
0.014811609 -0.32548586 -0.08979989 0.3358635 0.45834056 -1.067889 0.23735452 -2.5734084
0.19896518 -0.43019858 0.93952346 -0.9376813 -1.3583163 0.09570144 -0.22610706 0.13676679
0.50201994 -1.937028 -2.0987017 -1.6715491 0.29781973 0.23797886 -1.5254283 0.8177871
-1.7091862 -1.9634272 -2.6827748 -1.0223788 0.46664503 0.3320017 0.399381 0.11988651
-2.2106802 0.24881849 -0.53922665 -0.70380133 0.15222399 0.45367026 0.33031738 -2.0656743
0.46803734 -0.8841968 0.23694406 -1.4615672 -0.38765815 0.81659985 -1.6468707 -1.379491
-1.6219981 0.8673007 0.6033187 0.3882546 -2.5743482 -1.3493792 -0.26952684 0.8154587
-2.1115334 -2.2209065 0.20752774 -1.0741079 -0.6715937 0.7644345 -0.6378392 1.0110319
0.7634461 0.29620534 -1.7397916 0.887153 -0.5473486 -2.0358264 -0.73794645 -0.20847562
-0.9841965 -0.16877279 -1.8914907 0.8053224 -0.18676266 -1.9448682 0.4101949 0.68783355
0.5986881 0.66415477 0.5223927 -1.8098835 -2.3624003 0.24679044 -1.4883949 -1.013296
0.0070125703 -0.4884454 -0.92323637 0.444185 -0.28267226 0.062972106 -0.13562755 0.21942578
0.66968316 0.23376961 -0.02586775 0.42495945 -0.95284235 -0.23129575 -1.5225614 -0.9588369
-0.34582385 -0.88921386 -0.96059215 -0.5784437 -0.7536354 -0.726541 -0.52855486 -0.5898584
0.3286393 0.22826375 0.17918414 0.6291156 -2.2120757 -0.8130576 0.16854247 -0.1171471
-0.9860533 -0.89406365 0.2649472 -1.5593165 0.3608761 -0.9844416 0.71873087 -0.13502094
-0.6443029 0.8386314 -1.9264024 -1.5497166 0.343077 -1.9501674 0.42427263 -0.16053843
0.5652364 -1.5135998 -0.45696434 0.5547831 -2.0724866 0.7416221 -1.2870663 0.36026424
0.63661057 -1.9228121 -2.2730024 0.18926759 0.3422749 0.3746839 -0.60213435 -1.8549297
-0.12443484 0.43561944 0.44942027 0.08340869 -0.6675404 -2.5592494 0.38098451 -0.022838246

l3.bias f4 [21]
00000000: c1c2 a9be f812 53be 0875 07bf 19b4 fcbc
00000010: a1a8 28be c48f 013f 21f0 383e 9f73 953d
00000020: 4a36 ab3e 1f38 9e3e b048 b13e 77a7 ae3e
00000030: cce3 b83e 09a3 d6be 03ac 54be 9c46 34bf
00000040: cd37 9bbe 4f9b 963e b4cb c7bd 957d babd
00000050: 3389 00bf
-0.33156398 -0.20612705 -0.5291295 -0.030847596 -0.16470577 0.50609994 0.18060352 0.072974436
0.33439857 0.30902192 0.3462577 0.3411214 0.36111295 -0.4192126 -0.20768742 -0.7042024
-0.3031601 0.29415366 -0.0975565 -0.09105984 -0.5020935
